app/src/main/ml/ModalPenyakitKulit v1.tflite (tflite, 153148 bytes, 10 tensors)

sequential_2/conv2d_6/Relu;sequential_2/conv2d_6/BiasAdd;sequential_2/conv2d_8/Conv2D;sequential_2/conv2d_6/Conv2D;sequential_2/conv2d_6/BiasAdd/ReadVariableOp f4 [32, 3, 3, 3]
0	0xb9623505	-0.00021572791
1	0x3801285b	3.079358e-05
2	0xb98f8602	-0.0002737493
3	0x3993d250	0.0002819472
4	0x3a32e01c	0.0006823556
5	0x3882df29	6.24045e-05
6	0xba5075c7	-0.00079521205
7	0xb9874a41	-0.0002580453
8	0xb9b2aed0	-0.0003408105
9	0x3a12ce9f	0.0005600247
10	0x396105ea	0.00021459875
11	0xb89f7dd0	-7.605145e-05
12	0x390a6b48	0.00013200671
13	0x39c13044	0.0003684779
14	0x39b588bd	0.00034624888
15	0xb9c17975	-0.0003690232
16	0x39d1a743	0.00039988206
17	0xb8e7ff70	-0.00011062517
18	0xb9ea0c61	-0.0004464118
19	0x3a1be766	0.0005947262
20	0xba074e01	-0.0005161465
21	0x39128d05	0.00013976179
22	0xb9b21a8b	-0.00033970582
23	0xba4e25d4	-0.0007863913
24	0xb8a61d64	-7.920971e-05
25	0x39d53ca9	0.0004067172
26	0xb63b18a2	-2.787951e-06
27	0xb9660eae	-0.00021939978
28	0xb9e41be7	-0.00043508338
29	0x3a16d0fd	0.00057531876
30	0x3a1c1be2	0.00059550826
31	0x38d50b96	0.000101587895
32	0x379f29f3	1.8973811e-05
33	0xb94638f9	-0.00018903975
34	0x39b6b68e	0.0003484976
35	0x3a113eb7	0.0005540656
36	0x39e97ec0	0.0004453566
37	0x39b4c87d	0.0003448165
38	0x3975d566	0.00023444518
39	0xb92b94aa	-0.00016363212
40	0xb8dbf648	-0.00010488607
41	0x3958c1a6	0.00020671505
42	0x398712a8	0.00025763107
43	0x399420d0	0.00028253207
44	0x38e814b9	0.00011066482
45	0x39bac6eb	0.0003562489
46	0x39d9f1be	0.00041569577
47	0x383a592e	4.442891e-05
48	0x395234e4	0.00020046864
49	0xb97e9449	-0.00024278568
50	0x39698dc2	0.0002227342
51	0xb9da1390	-0.00041594775
52	0x398837ba	0.0002598146
53	0xba1fab7d	-0.00060909224
54	0x3937bdbf	0.00017522926
55	0x392bae6b	0.00016372807
56	0x38c7e89b	9.5323856e-05
57	0x3944b047	0.00018757685
58	0x3a05ce2d	0.000510427
59	0x39aa49a8	0.00032479805
60	0xb9e72422	-0.00044086674
61	0xb985a643	-0.0002549161
62	0x39fec4e2	0.00048593344
63	0x39c3e7fd	0.00037366143
64	0x390904e4	0.0001306716
65	0xb93b1d66	-0.00017844661
66	0xb9636bf7	-0.00021688627
67	0xb9e5da79	-0.00043841059
68	0x38961872	7.157111e-05
69	0x39d874a8	0.00041285646
70	0xb9f09b46	-0.00045892055
71	0x396df8a2	0.00022694704
72	0x38f490da	0.000116618074
73	0x3961587d	0.00021490637
74	0x39f32662	0.0004637717
75	0x398cb068	0.00026834314
76	0x38fb2702	0.000119758784
77	0x39849e66	0.00025295018
78	0x3974ad6a	0.00023334255
79	0xb95f1132	-0.00021273343
80	0x391503d0	0.00014211168
81	0xb9162e1f	-0.00014322296
82	0xb9bbeb64	-0.000358428
83	0x399a6244	0.00029446383
84	0xba068c7c	-0.0005132628
85	0xba5b18bf	-0.00083578745
86	0xba00c794	-0.0004912552
87	0x3a1e690b	0.00060428743
88	0xba88ad0e	-0.0010427551
89	0x38ac019d	8.2018996e-05
90	0x39d296c3	0.00040166648
91	0xba059683	-0.00050959754
92	0x39e02934	0.00042755308
93	0x38f10109	0.00011491968
94	0xba810b62	-0.0009845311
95	0xb9f14f83	-0.00046026343
96	0xb8a47375	-7.841635e-05
97	0x39538347	0.00020171433
98	0xb988f9aa	-0.00026125956
99	0x39ecbd4e	0.0004515447
100	0xb9c81b5a	-0.0003816735
101	0x39b1cbcd	0.00033911914
102	0x3a84d6d1	0.0010134821
103	0x39fac3ca	0.0004782959
104	0xb8707fa3	-5.733933e-05
105	0x3a358ee6	0.00069258956
106	0x39de1dee	0.0004236544
107	0x38220e3a	3.863706e-05
108	0x39899682	0.00026242813
109	0x3a1da49a	0.0006013602
110	0x39847a53	0.0002526814
111	0x3a025743	0.00049721095
112	0xb6c39825	-5.829165e-06
113	0x370a9b0f	8.261543e-06
114	0xb8ec7a6e	-0.00011276161
115	0x390db166	0.00013512894
116	0x3a1981ff	0.0005855858
117	0xb8aa7e51	-8.12976e-05
118	0x3980f5b6	0.0002459713
119	0x3a26545a	0.0006344967
120	0xb9984474	-0.000290427
121	0x3a072cbe	0.00051565084
122	0x3a40af3c	0.00073503307
123	0xba1fb768	-0.00060926983
124	0xb9912956	-0.00027687353
125	0x39b70a43	0.00034912126
126	0xb9e58f54	-0.00043785071
127	0xba4668dd	-0.00075687264
128	0xba0ee4ad	-0.00054509455
129	0x388ca585	6.7065506e-05
130	0xba1b996a	-0.0005935641
131	0xba24fc33	-0.0006293684
132	0xba0451d1	-0.0005047592
133	0x377d0390	1.5080805e-05
134	0x390651ab	0.0001280966
135	0xba441ac4	-0.0007480795
136	0x399c4c3a	0.00029811432
137	0x39e7bf62	0.00044202345
138	0xba12bcb0	-0.00055975746
139	0xb906ddbd	-0.0001286184
140	0x3a659fab	0.0008759449
141	0x37c1f261	2.312026e-05
142	0x3a2222e6	0.000618501
143	0x39f6cbd2	0.00047072634
144	0xb9cbf871	-0.0003890428
145	0xb9fa6214	-0.0004775679
146	0x3a162daf	0.0005728853
147	0x3895ac1f	7.136934e-05
148	0xb7af04c2	-2.0863841e-05
149	0x3a39e54e	0.0007091359
150	0x389e18ae	7.538624e-05
151	0x3a4e629f	0.0007872972
152	0x3a1592fa	0.00057058
153	0xba026f46	-0.00049756875
154	0xba1912ce	-0.0005839289
155	0x3a30a024	0.000673773
156	0xba23ecb6	-0.0006253229
157	0x39da16a4	0.0004159707
158	0x3a5a2479	0.0008321475
159	0x3a21364a	0.00061497523
160	0x38ecba3f	0.00011288048
161	0x3a647b5f	0.00087158935
162	0xb9346de3	-0.00017207074
163	0xb9512753	-0.00019946443
164	0xba3c7465	-0.0007188975
165	0xb9ebc5bb	-0.00044970014
166	0xb7da9e8d	-2.6061456e-05
167	0x39dc6c6e	0.00042042456
168	0xb9c340a0	-0.00037241448
169	0xb9b77e24	-0.00034998462
170	0xb939f59b	-0.0001773447
171	0x380f7cbe	3.4210032e-05
172	0x38fb0d28	0.00011971063
173	0xb872619f	-5.7788213e-05
174	0xba397761	-0.0007074979
175	0xb9a9ece6	-0.00032410695
176	0xb9acbb70	-0.00032946048
177	0x3916fab2	0.00014398506
178	0x3a40e528	0.00073583657
179	0x3a27f1c7	0.0006406572
180	0x3a2b9a7d	0.0006546153
181	0x3a2589dd	0.0006314794
182	0x39543c8c	0.00020240451
183	0x39679c71	0.00022088156
184	0x383cc003	4.5001518e-05
185	0x397958cc	0.0002377957
186	0xb9f89da1	-0.0004741969
187	0x3928a2f1	0.00016082429
188	0xb72dd250	-1.0360571e-05
189	0x387821f8	5.9159443e-05
190	0xb89aa2f6	-7.373646e-05
191	0x39fb7104	0.00047958654
192	0xba435b6d	-0.0007452283
193	0xba875445	-0.0010324797
194	0x38e4b396	0.00010905338
195	0x3923fc31	0.0001563884
196	0xba7c1cce	-0.00096173293
197	0xb9e222d0	-0.00043132016
198	0x39fe3a9d	0.00048490326
199	0xb9060329	-0.00012780413
200	0x39f11a66	0.0004598677
201	0xb7bb6d03	-2.23429e-05
202	0x393a2b66	0.0001775451
203	0xb987dc93	-0.00025913547
204	0xb9828b4e	-0.00024899322
205	0xba2a80ed	-0.0006504197
206	0xba669fc4	-0.00087976106
207	0x3a73eccd	0.00093050004
208	0x3908b55d	0.00013037534
209	0x3a875e23	0.0010327738
210	0x398003d2	0.0002441691
211	0x39cfdd81	0.0003964715
212	0x3a2e3dc7	0.0006646779
213	0x38f0e2a8	0.0001148631
214	0xb872de49	-5.7904315e-05
215	0x3922b76d	0.00015517855
216	0xb9321bb5	-0.00016985725
217	0xb954d4ec	-0.00020297215
218	0x391ba302	0.00014842677
219	0x3a3c9833	0.00071943103
220	0x3a4387c3	0.000745889
221	0x39f9b7ce	0.00047629926
222	0xb98e3029	-0.00027120233
223	0xb890cfc5	-6.905155e-05
224	0xb99a332b	-0.00029411292
225	0xb86e5b3b	-5.6828587e-05
226	0x3828327c	4.010134e-05
227	0xb9504fa7	-0.00019866099
228	0xb8c70535	-9.490029e-05
229	0xba246d69	-0.0006272407
230	0x37a6cf0d	1.9885158e-05
231	0x38acf16c	8.2465674e-05
232	0x38118005	3.468992e-05
233	0x3a3b8def	0.00071546336
234	0xb92fa3d8	-0.00016750337
235	0xb884e766	-6.337352e-05
236	0x39d27376	0.00040140346
237	0xb9fe6827	-0.00048524255
238	0xba60806e	-0.00085640594
239	0xba312796	-0.0006757913
240	0x37d6d2cd	2.560895e-05
241	0x3a173fc4	0.00057696947
242	0x390ef5a5	0.00013633685
243	0xba33be61	-0.0006856677
244	0xb82de82f	-4.1462652e-05
245	0x37a36193	1.947655e-05
246	0xb992d34c	-0.00028004718
247	0x3a5594d5	0.0008147483
248	0x3a66babc	0.00088016293
249	0xb9ceb5ee	-0.0003942693
250	0x3a3ceecb	0.0007207214
251	0x39c84847	0.00038200823
252	0xba676492	-0.0008826937
253	0xb4c696ea	-3.6990178e-07
254	0xba17906f	-0.0005781715
255	0x3a05161b	0.00050768413

sequential_2/conv2d_6/BiasAdd/ReadVariableOp f4 [32]
0	0x3dcce35e	0.10004304
1	0xbe560f74	-0.20904332
2	0xbddd79e2	-0.10814263
3	0x3d7ce8c3	0.061745416
4	0x3d9ba022	0.07598902
5	0xbdb25213	-0.08707061
6	0x3d871336	0.06595461
7	0x3cbb0d79	0.022833573
8	0x3d2902a7	0.041262295
9	0xbcca6bc5	-0.024709592
10	0xbe4370a1	-0.19085933
11	0x3dda29cd	0.10652504
12	0x3d45f081	0.048325066
13	0x3c1c4a84	0.00953925
14	0x3d8d2975	0.06892673
15	0xbe0937cf	-0.13400196
16	0xbd3e56fa	-0.046469666
17	0xbe0ed308	-0.1394769
18	0x3bb26b46	0.005444917
19	0x3d9d2a77	0.07674115
20	0xbd84b039	-0.06478924
21	0x3d46e40e	0.048557334
22	0x3d2100f1	0.03930754
23	0x3dd03b16	0.1016752
24	0x3dadd1c4	0.08487275
25	0x3d34d26f	0.044145998
26	0x3d97a8f8	0.07405275
27	0x3dabf67a	0.08396621
28	0x3df70342	0.12061168
29	0x3dc992f8	0.09842485
30	0x3e2c809b	0.16845934
31	0xbdd72903	-0.10505869

sequential_2/conv2d_7/BiasAdd/ReadVariableOp f4 [32]
0	0xbd53daee	-0.05172246
1	0xbd2f14ca	-0.042744435
2	0xbd741696	-0.059591852
3	0xbd244d0b	-0.040112536
4	0x3d57b9ff	0.052667614
5	0x3cc769e2	0.024342481
6	0xbdd4c6c9	-0.10389478
7	0x3d0da200	0.034578323
8	0xbd5f1af8	-0.05446908
9	0x3d75383e	0.05986809
10	0x3d664433	0.056217384
11	0xbcbcd4dc	-0.023050718
12	0x3e13d171	0.14435364
13	0xbd47e5b8	-0.04880306
14	0xbd3d79ab	-0.04625861
15	0xbc674fc1	-0.014118136
16	0x3e09cf45	0.13457973
17	0xbd757e33	-0.059934806
18	0xbda36c69	-0.07979662
19	0xbc7dc5e2	-0.0154890735
20	0x3b4541e7	0.0030099095
21	0x3c968ab8	0.018376693
22	0xbcf9e74d	-0.0305058
23	0xbe02de7e	-0.12780187
24	0x3da5ad58	0.08089703
25	0x3e510382	0.20411494
26	0xbc585dc9	-0.013205954
27	0xbd284bb3	-0.041087817
28	0x3d2594c3	0.040425073
29	0xbcb6ff55	-0.022338549
30	0x3dee343c	0.11631057
31	0x3e62f3f0	0.22163367

sequential_2/conv2d_8/BiasAdd/ReadVariableOp f4 [32]
0	0xbb57a964	-0.0032907361
1	0x3d1ed1d3	0.038774323
2	0xbb0f5bb4	-0.0021874728
3	0xbc8ea3b3	-0.017412042
4	0xbe139ab6	-0.14414486
5	0x3dfcfdd0	0.123530984
6	0x3de3427e	0.11096667
7	0xbc605957	-0.013693175
8	0xbce8cb39	-0.028417217
9	0xbc8a685c	-0.016895466
10	0xbd3afb97	-0.04565009
11	0xbbc3ee01	-0.0059793
12	0xbb813dce	-0.0039441353
13	0xbe43ec2f	-0.19133066
14	0x3955bbae	0.00020383179
15	0xbe10f370	-0.14155364
16	0xbc976fd3	-0.01848594
17	0x3d6230ab	0.055222195
18	0x3dba04b2	0.09082927
19	0xbdcd4840	-0.10023546
20	0x3d2651b1	0.04060525
21	0x3e0db696	0.13839182
22	0xbd107188	-0.03526452
23	0x3dcc446f	0.0997399
24	0xbd856064	-0.06512526
25	0x3d5c7548	0.053822786
26	0xbd80bd43	-0.06286099
27	0xbd90839c	-0.070563525
28	0x3c964d3f	0.01834738
29	0x3b5ca1a1	0.0033665674
30	0xbcc7dbac	-0.02439674
31	0xbd387aa8	-0.04503885

sequential_2/conv2d_7/Conv2D f4 [32, 3, 3, 32]
0	0x3d291c77	0.04128691
1	0x3e0d61dd	0.13806863
2	0x3e0340b8	0.12817657
3	0x3cda863f	0.026675342
4	0xbbaaddf1	-0.0052144458
5	0x3e189c6b	0.14903419
6	0x3da1173b	0.07865759
7	0x3e29e599	0.16591491
8	0xbea04940	-0.31305885
9	0x3e1a4aaa	0.15067545
10	0x3d48a2bb	0.048983317
11	0xbd4baafe	-0.049723618
12	0x3e7332bf	0.23749827
13	0xbd94f88a	-0.072739676
14	0x3e9893ca	0.29800254
15	0x3cb2c8a1	0.021824183
16	0xbce12e6a	-0.027487952
17	0x3d2d1c31	0.042263214
18	0xbd54de69	-0.05196992
19	0x3e23f105	0.1600991
20	0x3d9dff7f	0.07714748
21	0xbe3bd27e	-0.18342015
22	0x3e1f1a87	0.15537463
23	0xbd1dfe3a	-0.038572527
24	0x3e46add8	0.19402254
25	0xbdec04c1	-0.11524344
26	0xbbbe797c	-0.005812822
27	0xbcb20fc9	-0.021736043
28	0xbda558d6	-0.08073585
29	0x3ca67e99	0.020324038
30	0x3deadef2	0.11468305
31	0x3d4c35ff	0.049856182
32	0x3e02296e	0.12711117
33	0x3bcf674f	0.006329454
34	0x3d5098b5	0.050926883
35	0x3c6a0813	0.014284152
36	0xbc7a7562	-0.015286775
37	0x3bd24515	0.0064169266
38	0x3e284708	0.16433346
39	0x3e8bfdfa	0.27342206
40	0x3e26d007	0.16290294
41	0xbd7878d6	-0.060662113
42	0xbdefbb0a	-0.11705597
43	0x3e6f6fd4	0.23382503
44	0x3ef25033	0.47326812
45	0x3d4686f5	0.04846855
46	0x3ed8e3d5	0.42361322
47	0xbcdb3edf	-0.026763378
48	0x3e25dc99	0.16197433
49	0x3e38e2ad	0.1805522
50	0x3c3d7465	0.011563395
51	0xbcf8210d	-0.030289197
52	0xbdb48df3	-0.08816137
53	0x3cfc9d86	0.030836832
54	0x3e8c7320	0.27431583
55	0x3df0047d	0.11719606
56	0x3e0081ef	0.12549566
57	0x3e27e57a	0.16396132
58	0x3d619e67	0.055082705
59	0x3d99c792	0.07508768
60	0x3e423dad	0.1896884
61	0x3d84b2d4	0.06479421
62	0x3e5459cf	0.20737384
63	0xbd2cf9ba	-0.042230345
64	0xbd074b5e	-0.03303086
65	0xbd9d556a	-0.07682307
66	0xbe03b6ae	-0.12862656
67	0x3e2637bd	0.162322
68	0x3e03f51b	0.12886469
69	0xbe0b2c0f	-0.13591026
70	0x3e663595	0.22481377
71	0x3eb5d3ac	0.35513055
72	0x3e0d218f	0.13782333
73	0xbe28b0a5	-0.16473635
74	0xbe2b9c00	-0.16758728
75	0x3e95fb26	0.29293174
76	0x3e4de72f	0.20107721
77	0x3b9b64b2	0.0047422284
78	0x3e8f9a33	0.28047332
79	0xbc5b230d	-0.013375056
80	0x3e2eca49	0.17069353
81	0xbd5128fa	-0.05106447
82	0x3ae4ef54	0.0017466345
83	0x3e4dd02e	0.20098945
84	0xbd551385	-0.05202057
85	0xbd0e5f84	-0.03475906
86	0x3debdbd0	0.11516535
87	0x3e4533db	0.19258063
88	0x3e5413ec	0.20710725
89	0x3e88c2c6	0.267111
90	0x3e8934fa	0.2679823
91	0x3e1e05fd	0.15431972
92	0x3e9098f2	0.28241688
93	0xbbb2f603	-0.005461456
94	0x3e6a0423	0.2285314
95	0xbe077319	-0.132275
96	0x3d549011	0.051895205
97	0x3e470297	0.19434582
98	0x3ca0e4c7	0.01964034
99	0xbd7c9e65	-0.061674494
100	0xbcd7c005	-0.02633668
101	0x3e0fa959	0.14029445
102	0xbdaedbb2	-0.08537997
103	0x3d578878	0.05262038
104	0xbe3b090a	-0.18265167
105	0x3ce2a42a	0.02766617
106	0x3da5558b	0.08072957
107	0xbe251d4a	-0.16124454
108	0x3e15cecb	0.14629667
109	0xbdf55d28	-0.11980659
110	0x3e1dcdd8	0.15410554
111	0xbc52191c	-0.012823369
112	0xbbe9356d	-0.0071169646
113	0x3e6116cf	0.21981357
114	0xbe80d2a5	-0.2516071
115	0xbddf2058	-0.10894841
116	0xbd1e9d9e	-0.038724534
117	0xbe922dc1	-0.28550532
118	0xbe1f6608	-0.15566266
119	0xbd75cc97	-0.060009565
120	0xbdace48f	-0.084420316
121	0xbe574555	-0.21022542
122	0xbe6ef844	-0.23336893
123	0xbdb62bf8	-0.08895105
124	0x3d8e5191	0.06949151
125	0x3dcd5c2d	0.10027347
126	0xbe0c182e	-0.13681099
127	0x3d7b9426	0.061420582
128	0x3e4ca843	0.19986062
129	0x3d1d28ff	0.038369175
130	0x3bc0027a	0.00585967
131	0x3e383894	0.17990333
132	0xbe4ad79a	-0.19808808
133	0x3d3df40e	0.046375327
134	0x3c9779f1	0.018490763
135	0x3ebf147c	0.37320316
136	0xbe862cb4	-0.2620598
137	0xbcc5d096	-0.024147313
138	0x3cf532e5	0.029931495
139	0xba8cacbe	-0.0010732634
140	0x3dc91814	0.09819046
141	0x3d9fce1e	0.078029856
142	0x3e6a2baf	0.22868226
143	0x3d156bb5	0.03647967
144	0x3e6d57fb	0.23178093
145	0x3c359d8b	0.011084924
146	0xbd3e5f51	-0.04647762
147	0xbd8c0df0	-0.06838596
148	0xbda4dcf9	-0.0804996
149	0xbe46ed9e	-0.19426581
150	0x3e078aaa	0.1323649
151	0x3e3577eb	0.17721526
152	0x3dfc2614	0.1231195
153	0xbdcf4cb9	-0.101220556
154	0xbddc48bf	-0.10756063
155	0x3e3ca0e4	0.1842075
156	0x3dc97318	0.098364055
157	0x3c733acf	0.014845564
158	0xbcdad138	-0.026711091
159	0xbaa675a4	-0.0012699855
160	0x3e4eddf2	0.20201853
161	0xbdf04b02	-0.117330566
162	0x3c945ed0	0.018111616
163	0x3e729ae2	0.23691896
164	0xbecaec62	-0.3963347
165	0xbe624253	-0.22095613
166	0x3ea37cc5	0.3193113
167	0x3ec68b84	0.38778317
168	0xbdc80354	-0.0976626
169	0xbdd8f006	-0.10592656
170	0xbe4b0d5e	-0.19829318
171	0xbe754aef	-0.23954366
172	0x3e7ea897	0.24869
173	0x3dd01ea2	0.10162093
174	0x3eb7dc87	0.35910437
175	0xbcb2b08a	-0.021812696
176	0x3e8c12b3	0.27358016
177	0x3d7c8272	0.06164784
178	0xbe242427	-0.16029416
179	0x3e81778e	0.25286525
180	0xbdb307f0	-0.08741748
181	0xbe10e91c	-0.14151424
182	0x3d43bfd1	0.047790352
183	0x3e9a8871	0.30182222
184	0x3e057634	0.13033372
185	0xbd337679	-0.043814156
186	0xbe29ec05	-0.1659394
187	0x3e71c02e	0.23608467
188	0x3e3790bc	0.17926306
189	0xbd0ee185	-0.03488304
190	0xbe4919ee	-0.19638798
191	0xbcade5d1	-0.021227749
192	0xbe871c30	-0.26388693
193	0xbc337b74	-0.0109547265
194	0x3e0b0cbd	0.13579078
195	0xbda72bbc	-0.081626385
196	0xbe172e8e	-0.14763853
197	0x3e50d2b1	0.20392872
198	0xbdbb3d8d	-0.09142599
199	0xbd526930	-0.051369846
200	0xbec315d1	-0.38102582
201	0xbd11c728	-0.03559032
202	0x3e0c460b	0.13698594
203	0xbe5a74ec	-0.21333665
204	0xbc4a3eda	-0.012344087
205	0xbe9f9e9f	-0.31175706
206	0xbe21d48d	-0.15803738
207	0x3d14d746	0.036338113
208	0x3d839fec	0.06426987
209	0x3e053d34	0.13011628
210	0xbd85d71f	-0.06535172
211	0xbe686ce3	-0.22697787
212	0x3e0f492b	0.13992755
213	0xbe440e75	-0.1914614
214	0xbeb34f3a	-0.35021383
215	0xbe91023f	-0.28322026
216	0xbd6d5231	-0.057939712
217	0x3d03e16a	0.032197393
218	0xbe385a51	-0.18003203
219	0xbe94113c	-0.289194
220	0xbe760c39	-0.240281
221	0xbe0c2283	-0.1368504
222	0xbb041497	-0.0020153874
223	0x3e03e18f	0.12879013
224	0xbe137704	-0.1440087
225	0x3cc7d9bf	0.024395822
226	0xbd434413	-0.047672343
227	0x3d13683c	0.035988078
228	0xbec3bc42	-0.38229567
229	0xbddfa019	-0.10919208
230	0xbe08d5dc	-0.13362831
231	0xbd22faf1	-0.039790098
232	0xbeba7afa	-0.3642195
233	0xbdec348e	-0.115334615
234	0x3bba6ac2	0.005688996
235	0xbe9e25e9	-0.30888298
236	0x3e2b6897	0.16739117
237	0xbe607e67	-0.21923219
238	0x3d73dd12	0.059537
239	0x3d9ff404	0.07810214
240	0x3e1005f1	0.14064766
241	0xbce83172	-0.02834389
242	0xbe485d88	-0.1956693
243	0xbe1e0243	-0.1543055
244	0x3d217fc6	0.039428495
245	0xbe883105	-0.265999
246	0xbde6e1e8	-0.11273557
247	0xbdbeee0d	-0.09322748
248	0xbe890622	-0.2676249
249	0xbe85d295	-0.26137224
250	0xbed1f5ab	-0.41007742
251	0xbe2f2e3a	-0.17107478
252	0xbe43ba9c	-0.19114155
253	0x3da911de	0.08255361
254	0xbe3b0cc9	-0.18266596
255	0x3ddc9a03	0.10771563

sequential_2/conv2d_8/Conv2D f4 [32, 3, 3, 32]
0	0xbd1ba320	-0.037997365
1	0xbda352dd	-0.07974789
2	0x3d0886a1	0.033331517
3	0x3ce8954f	0.028391508
4	0xbd97545b	-0.073891364
5	0x3cd5e01b	0.026107838
6	0xbe2684dc	-0.1626162
7	0x3d3be0d0	0.045868695
8	0xbe03c767	-0.12869035
9	0x3e1faf61	0.15594245
10	0xbd295ba2	-0.041347153
11	0x3d9e7a9f	0.07738232
12	0xbc8e25e8	-0.01735206
13	0x3d3fee66	0.046858214
14	0xbd480ca2	-0.048840173
15	0x3c05ae53	0.008159238
16	0xbdde142a	-0.1084369
17	0x3e4cf7fe	0.20016477
18	0x3e895374	0.26821482
19	0x3c108756	0.008821329
20	0xbc1db34b	-0.009625266
21	0x3df806de	0.12110685
22	0xbdf07665	-0.11741332
23	0x3db84ea6	0.08999376
24	0x3e8e8cc8	0.27841783
25	0xbd6346f7	-0.0554876
26	0x3ca1b32d	0.019738758
27	0x3d80f56c	0.062968105
28	0x3e129abe	0.14316842
29	0xbdc3bf04	-0.09557918
30	0xbd87715e	-0.0661342
31	0xbdf4e238	-0.1195721
32	0xbe935d6c	-0.28782213
33	0xbae0f4d2	-0.0017162806
34	0xbde31486	-0.11087899
35	0xbe0a39a0	-0.13498545
36	0xbd2750bc	-0.04084848
37	0x3cf8cbf2	0.030370686
38	0xbe5f2832	-0.21792677
39	0xbe9454d3	-0.28970966
40	0xbaa0ef11	-0.0012278279
41	0xbd8e69a3	-0.06953742
42	0xbe16c157	-0.14722191
43	0xbe1e675e	-0.15469119
44	0x3e82408a	0.25439864
45	0xbe99949e	-0.29996198
46	0xbdb71021	-0.08938623
47	0xbd37225c	-0.044710502
48	0xbceefac4	-0.029172309
49	0xbe54640d	-0.20741291
50	0xbda0689a	-0.07832451
51	0xbe5978bd	-0.21237464
52	0x3dbfc2d9	0.09363336
53	0xbcc24ebb	-0.023719182
54	0xbe09e597	-0.13466488
55	0xbe4ccfbf	-0.20001124
56	0x3bb52e1f	0.0055291797
57	0x3e8d82e4	0.27638924
58	0xbd004612	-0.031316824
59	0xbd8cfae1	-0.06883789
60	0x3de83b58	0.11339444
61	0x3df73c80	0.12072086
62	0xbe2414e1	-0.1602359
63	0x3e046644	0.12929636
64	0xbcd8de72	-0.026473258
65	0x3e05396f	0.1301019
66	0xbd8a30ea	-0.06747611
67	0x3d6ec834	0.058296397
68	0xbc324a8f	-0.010882034
69	0x3d64b397	0.055835333
70	0xbe74b51d	-0.23897214
71	0xbe48bf55	-0.19604237
72	0xbdfa526f	-0.12222754
73	0x3d4c6390	0.049899638
74	0xbd8c04bb	-0.0683684
75	0x3d6a6b74	0.05723138
76	0x3ccef2a8	0.025262192
77	0xbe0857e6	-0.1331478
78	0xbe01bbf5	-0.12669356
79	0xbb8da44d	-0.0043225647
80	0x3df7259e	0.12067722
81	0xbe610e4e	-0.21978113
82	0xbcbd2cd1	-0.02309266
83	0xbd8f40aa	-0.069947556
84	0xbd1371d4	-0.035997227
85	0xbc2e2559	-0.010629022
86	0x3db10a83	0.08644583
87	0xbd5dd9b0	-0.05416268
88	0x3e6e3d82	0.23265651
89	0x3e4a67ac	0.1976611
90	0x3db81834	0.089889914
91	0x3d9f6b3e	0.07784127
92	0xbe0a8cb9	-0.13530244
93	0x3e08211b	0.13293879
94	0xbe094dbf	-0.13408564
95	0x3e1687cd	0.14700241
96	0x3d6a9468	0.057270437
97	0xbe8a01e9	-0.26954582
98	0xbc865e0f	-0.016402273
99	0x3e2924ab	0.16517894
100	0xbdb781a4	-0.08960274
101	0xbd8f908c	-0.07009992
102	0xbdf07bcc	-0.117423624
103	0x3e903a29	0.28169373
104	0xbdad19b0	-0.08452165
105	0x3db1a809	0.08674628
106	0x3d3b27fb	0.045692425
107	0xbc95f0ce	-0.018303301
108	0xbf04727a	-0.5173718
109	0xbd7379bb	-0.059442263
110	0xbda3c6c0	-0.07996893
111	0x3e0374d5	0.12837537
112	0x3d2336b6	0.0398471
113	0x3e9a7115	0.301644
114	0x3e1db6d5	0.15401776
115	0x3e7b17ae	0.24520752
116	0x3d623577	0.05522677
117	0x3d6e7832	0.058220096
118	0xbdb6cdaa	-0.08925946
119	0x3e13f7fc	0.14450067
120	0x3e3dc20b	0.18531053
121	0xbdfad636	-0.12247889
122	0x3d155b26	0.03646388
123	0xbb4d49f8	-0.0031324606
124	0x3e02557e	0.12727925
125	0xbd52b8c3	-0.051445734
126	0xbdb79b51	-0.08965171
127	0xbd0eb9cf	-0.03484517
128	0xbe0ee1d2	-0.13953331
129	0xbe2ea22e	-0.17054054
130	0x3d39753d	0.045277823
131	0xbdf4a830	-0.11946142
132	0xbd138cb7	-0.036022868
133	0x3d0bb150	0.034104645
134	0xbde7f5dd	-0.113261916
135	0x3d254cb9	0.04035637
136	0x3d4bdcf2	0.049771257
137	0xbc2d4d16	-0.010577461
138	0xbd68c36a	-0.056826986
139	0xbd291793	-0.041282248
140	0xbc55784d	-0.01302917
141	0x3d0f6a65	0.035013575
142	0xbc55035f	-0.013001292
143	0xbd0a7df1	-0.033811513
144	0x3d2c7b55	0.042109806
145	0xbe226447	-0.15858565
146	0xbc0a12e3	-0.0084273545
147	0xbda59473	-0.08084955
148	0xbcdd55d8	-0.027018473
149	0x3da2f5f0	0.07957065
150	0xbdb6cfb6	-0.089263365
151	0x3d485099	0.04890499
152	0xbe7b1c67	-0.24522553
153	0x3e45f11f	0.19330262
154	0xbdca0f32	-0.098661795
155	0xbd59badf	-0.05315673
156	0xbce6f690	-0.028193742
157	0x3d11cb14	0.03559406
158	0xbda945bc	-0.08265254
159	0x3d02bddf	0.031919356
160	0x3e47e3b9	0.19520463
161	0x3da789bd	0.08180568
162	0xbd8110c7	-0.06302028
163	0x3e3edc0d	0.1863863
164	0x3e0de3e3	0.13856463
165	0x3dc24b98	0.094870746
166	0xbe61425d	-0.21997972
167	0x3d3f3cba	0.046688773
168	0xbdb16c44	-0.08663228
169	0xbc2a157a	-0.010381097
170	0x3d807f7e	0.06274317
171	0x3e27196c	0.16318291
172	0x3e222923	0.15836005
173	0x3de69900	0.11259651
174	0xbc9c1796	-0.019054215
175	0xbc8d4a72	-0.017247412
176	0xbba542a3	-0.005043344
177	0xbd89410d	-0.067018606
178	0x3e6b05b0	0.22951388
179	0xbaa33630	-0.0012452062
180	0x3d3f32f8	0.046679467
181	0x3d730ebd	0.059340227
182	0x3e4b98ed	0.19882555
183	0xbd92f126	-0.07174902
184	0x3d1cf37f	0.038318153
185	0x3e839af9	0.25704172
186	0x3d76ebf8	0.06028363
187	0x3d94d385	0.07266907
188	0xbe33ad26	-0.1754652
189	0xbe086df8	-0.133232
190	0x3d81d768	0.063399136
191	0x3d629934	0.055321887
192	0x3de7021e	0.11279701
193	0xbddf1c9c	-0.10894129
194	0x3d21d5b1	0.039510433
195	0xbd7cb199	-0.061692808
196	0xbd09f4b2	-0.033680625
197	0xbdc48e65	-0.09597472
198	0x3e02fe46	0.1279231
199	0x3dc1e85d	0.09468148
200	0x3e0717c2	0.13192657
201	0x3e487675	0.19576438
202	0x3e262a79	0.1622714
203	0xbe533044	-0.2062388
204	0xbea33002	-0.31872565
205	0xbd8518fe	-0.064989075
206	0xba0bd0df	-0.00053335534
207	0x3da93807	0.082626395
208	0x3df4b118	0.119478405
209	0x3e802ab5	0.25032583
210	0x3e4c4674	0.1994875
211	0x3d90a522	0.070627466
212	0xbe0a0c1f	-0.13481186
213	0x3d654996	0.05597838
214	0xbe246d59	-0.16057338
215	0x3d46dc17	0.048549738
216	0xbd7ede18	-0.062223524
217	0x3c3f0376	0.01165854
218	0x3bfbd658	0.007685464
219	0xbc608c41	-0.013705314
220	0x3dbed228	0.09317428
221	0xbdd3926e	-0.103306636
222	0x3d61a25c	0.05508648
223	0xbd6b6951	-0.057473484
224	0x3e88cdee	0.26719612
225	0xbe1dbe93	-0.1540473
226	0xbd5f82b7	-0.05456802
227	0xbe89d437	-0.2691972
228	0xbdddce8a	-0.1083041
229	0x3de9b668	0.11411744
230	0x3e27c76e	0.1638467
231	0x3e19a58a	0.15004554
232	0x3dc27de9	0.09496672
233	0xbc4f4e6a	-0.012652973
234	0x3e408d4f	0.18803905
235	0x3ace14fb	0.0015722805
236	0xbd7eb35f	-0.06218278
237	0x3dbc38a0	0.09190488
238	0xbe167221	-0.14691974
239	0x3de273d7	0.11057251
240	0xbd9ac1ed	-0.0755652
241	0x3df69583	0.12040236
242	0xbe227030	-0.15863109
243	0xbd52e551	-0.051488224
244	0xbc89802d	-0.016784752
245	0x3c93fdd5	0.018065372
246	0xbd14734b	-0.036242764
247	0xbe3e0046	-0.18554792
248	0xbe1c0f53	-0.1524022
249	0xbe565d44	-0.20934016
250	0x3cce1246	0.025155198
251	0xbb508b37	-0.003182126
252	0xbe0984af	-0.13429521
253	0xbd5cdef4	-0.053923562
254	0x3e656318	0.22401083
255	0x3d5a10a8	0.05323854

sequential_2/dense_5/BiasAdd/ReadVariableOp f4 [10]
0	0x3db2c50b	0.08728989
1	0xbd21a681	-0.03946543
2	0xbda59a77	-0.080861025
3	0xbc510f2b	-0.012759964
4	0x3aa351b6	0.0012460265
5	0xbdb357dc	-0.08756992
6	0xbcba142c	-0.022714697
7	0x3cc68ef1	0.024238082
8	0x3e06adf2	0.13152292
9	0xbcdf5146	-0.027260434

sequential_2/dense_4/BiasAdd/ReadVariableOp f4 [128]
0	0xbdc9b36b	-0.098486744
1	0x3d8de5f8	0.06928629
2	0x3c71089f	0.014711528
3	0x3e0b9246	0.13630018
4	0x3d8807b3	0.066420935
5	0xbc95bf58	-0.018279716
6	0xbc42d34d	-0.011891198
7	0x3db585d9	0.0886342
8	0x3e11120f	0.14167045
9	0xbd7276c9	-0.059195314
10	0xbcc052b5	-0.023476938
11	0xbe4b18f7	-0.19833742
12	0xbcf355ff	-0.029704092
13	0xbd4db75f	-0.050223704
14	0xbcc540b8	-0.024078712
15	0xbcd50442	-0.026003007
16	0xbd1fcbcb	-0.03901271
17	0x3d8d5443	0.06900837
18	0x3d8c072b	0.06837305
19	0x3c1362b3	0.0089957
20	0x3d31617f	0.04330587
21	0x3ddbdd69	0.1073559
22	0x3db6652e	0.08906017
23	0x3d7beffd	0.061508168
24	0x3cec3980	0.028836012
25	0xbd7bc5c9	-0.06146792
26	0x3db840ba	0.089967206
27	0x3d4b6911	0.049660746
28	0x3d9604fa	0.07325168
29	0xbd48b12e	-0.048997097
30	0x3c1e1f3b	0.009651001
31	0x3d7baf0e	0.061446242
32	0x3e5c1d5c	0.21495575
33	0xbcda1292	-0.026620183
34	0xbdd300d2	-0.10302891
35	0x3e265de0	0.16246748
36	0xbdc62828	-0.09675628
37	0x3cbc765c	0.023005657
38	0x3ccc57f6	0.024944287
39	0x3c9cc1bb	0.019135347
40	0xbd01c2ee	-0.03168004
41	0x3e1231af	0.14276765
42	0xbd514f69	-0.051101122
43	0x3de67164	0.11252096
44	0x3d8c3602	0.06846239
45	0x3d1b75c7	0.037954118
46	0xbcc0dba8	-0.02354224
47	0xbcaf974f	-0.021434454
48	0xbe3c51de	-0.18390605
49	0xbd1d7c8a	-0.038448848
50	0xbd8ea7f6	-0.0696563
51	0xbda713e9	-0.081580944
52	0x3c57aa64	0.013163183
53	0x3d35c90d	0.04438119
54	0x3d144622	0.036199696
55	0xbdda4c8c	-0.106591314
56	0xbd99133f	-0.07474374
57	0xbd7817d8	-0.060569614
58	0xbca017d3	-0.01954261
59	0xbe0a7dd1	-0.13524558
60	0x3ba72524	0.005100863
61	0x3c68b6eb	0.014203767
62	0x3e58d068	0.2117325
63	0xbca939a9	-0.020657377
64	0xbb78622c	-0.0037900312
65	0xbbf9b806	-0.0076208143
66	0x3b039b28	0.0020081494
67	0x3c64f946	0.013975447
68	0x3b445868	0.002995992
69	0xbd3f67da	-0.0467299
70	0xbcdc611d	-0.026901776
71	0xbda9a9ad	-0.08284316
72	0xbc169f3f	-0.009193241
73	0xbd985c88	-0.07439524
74	0x3e49940d	0.19685383
75	0x3d40524a	0.046953477
76	0x3da74367	0.08167153
77	0xbce71f07	-0.028213037
78	0x3dbf743a	0.0934834
79	0x3dafc561	0.08582569
80	0xbc3b49b5	-0.011431147
81	0x3bc993b3	0.0061516403
82	0xbd078435	-0.033085067
83	0x3cbd92bd	0.02314126
84	0xbd0f2346	-0.03494575
85	0xbdb066ec	-0.08613381
86	0xbd8affd9	-0.0678708
87	0xbc891c1b	-0.016737035
88	0xbd18d8bb	-0.037316065
89	0xbe029087	-0.12750445
90	0xbe097029	-0.13421692
91	0xbd67d1af	-0.056596454
92	0x3dbd3af6	0.092397615
93	0x3c2511cc	0.010075044
94	0x3e36a62c	0.17836827
95	0xbc91745e	-0.017755684
96	0xbd23f790	-0.040031016
97	0xbd948583	-0.07252028
98	0x3ae8dd8c	0.0017766221
99	0xbd138654	-0.036016777
100	0xbd402633	-0.04691143
101	0x3db1d461	0.08683086
102	0x3cbc24be	0.022966739
103	0xbc995030	-0.018714994
104	0x3d230c4b	0.039806645
105	0x3d007878	0.031364888
106	0xbc018d79	-0.007907265
107	0x3d9bf7d9	0.076156326
108	0xbd49f19b	-0.04930268
109	0xbd9bb1f5	-0.07602302
110	0x3de94d7f	0.11391734
111	0xbc5fb300	-0.013653517
112	0x3cb7360f	0.022364644
113	0xbd1a390b	-0.037652057
114	0xbd60748e	-0.054798655
115	0xbddda6d8	-0.108228385
116	0x3b3f2e9b	0.0029172066
117	0xbdcdd472	-0.10050286
118	0x3e160aaf	0.14652513
119	0x3dcbb2b4	0.09946194
120	0x3dcf3746	0.101179644
121	0xbdc8d12f	-0.098055236
122	0xbbfc5832	-0.0077009434
123	0x3e22bb9a	0.15891877
124	0xbd917c66	-0.07103805
125	0x3bc4cca1	0.006005839
126	0xbb5d4b7b	-0.0033766914
127	0xbc973701	-0.018458845

sequential_2/dense_4/MatMul f4 [128, 128]
0	0x3d6494c4	0.055805936
1	0x3da237a2	0.07920767
2	0x3cea20bb	0.02858006
3	0xba66fb5d	-0.000881126
4	0x3c628a97	0.013826988
5	0x3ddf0a7a	0.1089067
6	0x3d9ad7bc	0.07560679
7	0x3e150243	0.14551644
8	0x3dcdfb1a	0.100576594
9	0xbdb8ee0f	-0.09029781
10	0xbd1ab166	-0.037766837
11	0x3d9d0b2d	0.07668147
12	0xbe1a0c1d	-0.15043683
13	0x3db3d6bc	0.08781192
14	0x3d5bf758	0.053702682
15	0x3ce24981	0.02762294
16	0xbe84925c	-0.25892913
17	0x3beae44d	0.007168329
18	0xba50b2ad	-0.0007961195
19	0xbd98c41c	-0.0745928
20	0xbd511691	-0.05104691
21	0xbe1fab84	-0.15592772
22	0x3e205765	0.15658338
23	0xbe438c82	-0.19096568
24	0xbda35f07	-0.079771094
25	0xbc981604	-0.018565185
26	0xbd4a0f53	-0.04933102
27	0x3dc8bbb4	0.098014265
28	0xbcd297bf	-0.025707124
29	0x3e774bdd	0.24150033
30	0x3b9a3151	0.004705586
31	0x3cf725f7	0.03016947
32	0x3d451b3d	0.04812168
33	0x3df9ec5c	0.12203285
34	0x3e2ca709	0.16860594
35	0x3d803b21	0.06261278
36	0xbddac972	-0.10682954
37	0x3e626e03	0.22112279
38	0xbe921f2e	-0.28539413
39	0xbd4b8206	-0.049684547
40	0xbd92084d	-0.071304895
41	0xbe19e009	-0.15026869
42	0xbd823dea	-0.063594654
43	0x3c6e1b1e	0.014532832
44	0x3d457564	0.048207656
45	0xbe2259ea	-0.15854612
46	0xbd39ca65	-0.045359034
47	0xbbd21b86	-0.0064119725
48	0x3e0ce4d2	0.13759163
49	0xbd4394b2	-0.04774923
50	0x3e361e94	0.17785102
51	0x3d7c1d35	0.06155129
52	0x3e442d41	0.19157888
53	0xbd60d2ff	-0.05488872
54	0x3c06ab0d	0.008219493
55	0xbe4bb7e6	-0.1989437
56	0x3de5fb88	0.112296164
57	0xbdc28597	-0.094981365
58	0x3e6af0d8	0.22943437
59	0xbc04264e	-0.008065773
60	0xbd01ff57	-0.03173765
61	0xbd98b3ef	-0.074561946
62	0xbd9b09ec	-0.07570252
63	0xbbb868fb	-0.005627749
64	0xbe44aa10	-0.19205499
65	0xbcb38437	-0.02191363
66	0xbd48f771	-0.049064104
67	0x3d6d6da4	0.05796589
68	0x3e49ac95	0.19694741
69	0xbcbe4681	-0.023226978
70	0x3e0b91cc	0.13629836
71	0x3dc82b4e	0.09773885
72	0xbd798b69	-0.060923968
73	0xbd8aa3bb	-0.0676951
74	0xbe160020	-0.14648485
75	0x3db11b57	0.08647793
76	0xbd266eaf	-0.0406329
77	0x3d965847	0.07341056
78	0x3ddc99b7	0.10771506
79	0x3d199c53	0.037502598
80	0x3de51f30	0.11187589
81	0x3d9c1754	0.07621637
82	0xbd8c7148	-0.06857544
83	0x3dca0d40	0.098658085
84	0xbd849547	-0.06473785
85	0xbdd3a1f6	-0.10333626
86	0x3e40a053	0.18811159
87	0x3d86cfed	0.065826274
88	0x3c2e7c7b	0.010649796
89	0xbe445d41	-0.19176199
90	0xbe14c82d	-0.14529486
91	0x3cfc48d6	0.03079645
92	0xbdcd261e	-0.10017036
93	0x3e54b0bb	0.20770542
94	0xbccaa903	-0.024738794
95	0xbd82fc1b	-0.063957416
96	0xbd0394d6	-0.032124363
97	0x3d4a7426	0.049427174
98	0xbdf65b50	-0.12029135
99	0x3ca6dfea	0.020370442
100	0xbe2edc6a	-0.17076269
101	0x3e79b538	0.24385536
102	0xbdf16191	-0.117861874
103	0x3d7f08a8	0.062264115
104	0xbd82be5a	-0.06383963
105	0x3de7c00e	0.113159284
106	0xbda18c62	-0.07888104
107	0x3dd337ae	0.103133544
108	0x3c8bdb3b	0.01707231
109	0x3d3e2556	0.046422325
110	0x3e2f9695	0.17147286
111	0x3ca6eb3d	0.020375842
112	0xbe1c3856	-0.15255865
113	0x3db14812	0.086563244
114	0xbd782015	-0.06057747
115	0xbc989882	-0.018627409
116	0x3d84c89a	0.06483574
117	0x3ca3cc2d	0.01999482
118	0xbe27c432	-0.16383436
119	0x3e3a9419	0.18220557
120	0x3d931c06	0.071830794
121	0xbea5f4ea	-0.32413417
122	0x3e0225f1	0.12709786
123	0x3e182f59	0.14861812
124	0x3d46bf9a	0.04852257
125	0x3e397385	0.18110473
126	0x3dd56721	0.10420061
127	0xbde9a604	-0.11408618
128	0x3da7650c	0.0817357
129	0xbe28acfa	-0.16472235
130	0xbebcf416	-0.36904973
131	0xbd043edc	-0.03228651
132	0xbd15460c	-0.036443755
133	0xbec949e4	-0.39314187
134	0xbd0d7c7b	-0.034542542
135	0xbd86e60e	-0.06586848
136	0x3d47de69	0.04879609
137	0xbdac6d08	-0.084192336
138	0xbc3bed2f	-0.011470123
139	0x3df69912	0.120409146
140	0x3d6be1cb	0.05758838
141	0x3c2a0b3a	0.010378653
142	0xbe5c2a8e	-0.21500608
143	0x3e4509c3	0.19242005
144	0x3e06cbca	0.13163677
145	0x3cb3452b	0.021883568
146	0x3d98c0fe	0.07458685
147	0xbe0500e6	-0.12988624
148	0x3de14557	0.10999554
149	0x3c7869c5	0.015161936
150	0xbe052a78	-0.13004482
151	0x3e2eb67c	0.170618
152	0xbc885308	-0.016641155
153	0x3e01c59c	0.12673038
154	0xbe283832	-0.16427687
155	0xbe0ea6cf	-0.1393082
156	0xbe1a21b8	-0.15051925
157	0x3cebddc4	0.02879227
158	0xbc5f907f	-0.01364529
159	0x3dcbb911	0.09947408
160	0x3e3255fc	0.17415613
161	0xbcb2b979	-0.021816956
162	0xbdabce70	-0.08388984
163	0xbcc6c2cd	-0.02426281
164	0x3d57f95c	0.052728042
165	0xbea7ca42	-0.32771498
166	0x3d9c38e8	0.076280415
167	0x3d2510a1	0.04029906
168	0x3dc71577	0.09720891
169	0xbd83722c	-0.06418261
170	0xbdefff29	-0.1171859
171	0xbe018d89	-0.12651648
172	0xbd7df441	-0.062000517
173	0xbe398621	-0.18117572
174	0xbe3010d8	-0.17193925
175	0xbd01ede9	-0.03172103
176	0xbe486feb	-0.19573943
177	0x3c1ded62	0.009639116
178	0xbde649bb	-0.11244532
179	0x3e1bdbed	0.15220614
180	0x3e61b143	0.22040276
181	0xbd9fd8fa	-0.07805057
182	0xbc9a16ac	-0.018809639
183	0x3e054a48	0.13016617
184	0xbdb4470b	-0.08802613
185	0x3d9e9760	0.07743716
186	0xbd960330	-0.07324827
187	0x3da33a3e	0.07970093
188	0xbd824159	-0.0636012
189	0x3d4447b8	0.04791996
190	0x3d40e242	0.047090776
191	0xbc74b5b0	-0.014935896
192	0xbe10606c	-0.14099282
193	0xbe0b0ed5	-0.13579877
194	0x3d80ef53	0.062956475
195	0x3e2223d7	0.15833984
196	0xbca7cf3c	-0.02048456
197	0x3dd39aad	0.103322364
198	0xbe2de56d	-0.1698205
199	0x3e1789fd	0.14798732
200	0x3dd8e769	0.10591013
201	0xbd726fcc	-0.05918865
202	0xbda11e14	-0.07867065
203	0x3caede6c	0.021346293
204	0x3e0bddaa	0.13658777
205	0xbd8a0d81	-0.06740857
206	0x3d196b44	0.037455812
207	0xbd49ec65	-0.04929771
208	0x3e7a3a9f	0.24436425
209	0x3e6e3300	0.23261642
210	0x3e0877ff	0.13327025
211	0x3e3cdb51	0.18443038
212	0x3c651f40	0.013984501
213	0x3de50a72	0.11183633
214	0x3da7b2c3	0.08188393
215	0xbc989123	-0.018623894
216	0xbde7a9db	-0.11311694
217	0x3d85ab20	0.0652678
218	0x3db9a981	0.090655334
219	0xbdbb9bfd	-0.09160612
220	0x3d81c7ae	0.06336914
221	0xbde99691	-0.114056714
222	0xbd84a229	-0.06476242
223	0xbcb2da97	-0.021832747
224	0x3e54a0db	0.20764486
225	0xbe02dac8	-0.12778771
226	0x3a1035d0	0.0005501183
227	0x3d8605c2	0.06544067
228	0xbdcce1cc	-0.10004005
229	0x3cba23fb	0.022722235
230	0x3e479df6	0.19493851
231	0xbdd4ba1c	-0.1038706
232	0xbd171672	-0.03688664
233	0x3d6cb7f4	0.05779262
234	0xbd7f7ae3	-0.062373053
235	0x3d2fdc09	0.04293445
236	0xbd9152a3	-0.0709584
237	0x3d8aa475	0.06769649
238	0x3e39015a	0.18066922
239	0x3ca25fdb	0.019821098
240	0xbc8681f2	-0.016419385
241	0xbc825080	-0.015907526
242	0x3d77e144	0.060517564
243	0x3e17ca1c	0.14823192
244	0x3e185dd1	0.14879538
245	0xbde55f46	-0.111998126
246	0x3d82c9fb	0.06386181
247	0x3d5d6c46	0.054058336
248	0xbd35f558	-0.04442343
249	0x3db4b592	0.08823694
250	0x3d8bd17d	0.06827066
251	0xbe1fb2c8	-0.15595543
252	0xbc9e002a	-0.019287188
253	0xbdc19f57	-0.0945422
254	0x3cbddb6f	0.023175923
255	0xbdc55913	-0.0963613

sequential_2/dense_5/MatMul f4 [10, 128]
0	0x3d92247b	0.07135864
1	0x3da55ad8	0.08073968
2	0x3b8b6d6d	0.004254988
3	0x3e5d0070	0.21582198
4	0x3cde8e5e	0.027167495
5	0xbe18f932	-0.1493881
6	0x3dd457d2	0.10368313
7	0xbc05d62d	-0.008168739
8	0x3e10be19	0.14135017
9	0xbd9f307c	-0.077729195
10	0x3e13c731	0.14431454
11	0xbe8c4440	-0.2739582
12	0xbd668212	-0.05627639
13	0xbee6f3be	-0.45107836
14	0xbe1f386e	-0.1554887
15	0xbe5f634c	-0.21815223
16	0xbe19eaa4	-0.15030915
17	0xbe022966	-0.12711105
18	0xbe1cd293	-0.15314703
19	0x3d53cec1	0.051710848
20	0xbed8406d	-0.42236653
21	0xbc5e7292	-0.01357712
22	0xbe76cbf1	-0.24101235
23	0x3bcdaed5	0.006276945
24	0x3ddce8a3	0.107865594
25	0x3e20eeec	0.15716141
26	0x3cf70b27	0.030156685
27	0xbc24a26f	-0.010048493
28	0x3e680b4f	0.22660564
29	0xbd6fe1e3	-0.05856503
30	0xbe91afd5	-0.28454462
31	0xbe8aa528	-0.2707913
32	0x3e9a1441	0.30093578
33	0xbd2817c8	-0.041038305
34	0xbe7b1cc3	-0.2452269
35	0x3e41adf1	0.1891401
36	0xbed67af8	-0.41890693
37	0xbe0d851b	-0.13820307
38	0xbd96e1b0	-0.07367265
39	0xbd338614	-0.04382904
40	0x3c30bfe2	0.010787936
41	0x3ed1277f	0.40850446
42	0xbe2fd926	-0.1717268
43	0x3e913042	0.2835713
44	0x3e6a79ce	0.22898027
45	0xbea2c06f	-0.3178744
46	0x3d890f3e	0.0669236
47	0xbd1eafa9	-0.03874174
48	0xbea0fbcf	-0.31442115
49	0x3ef55330	0.4791503
50	0xbdd0bc70	-0.101921916
51	0xbdbe7c1a	-0.09301014
52	0x3b965d08	0.004588727
53	0xbe4fff14	-0.20312148
54	0xbce539ff	-0.027981756
55	0x3c14fa50	0.009092882
56	0x3e9d14bd	0.30679885
57	0x3e45acb0	0.19304156
58	0x3dff91f5	0.12479011
59	0x3d9af7f2	0.07566823
60	0x3e901a65	0.28145137
61	0xbe73baac	-0.23801678
62	0x3cdc5456	0.026895683
63	0xbe1a9e16	-0.15099367
64	0xbe5c03f1	-0.21485879
65	0x3deefbd9	0.1166913
66	0xbdaa290c	-0.0830861
67	0xbe42d2e9	-0.19025768
68	0xbdd6923f	-0.10477113
69	0xbd92d71d	-0.07169936
70	0x3e14f078	0.14544857
71	0xbf24096f	-0.64076895
72	0xbdb1f1e5	-0.08688716
73	0xbddfbe24	-0.10924938
74	0x3e0ef06b	0.139589
75	0xbe74f94e	-0.23923227
76	0x3ea4238c	0.3205837
77	0xbd8b98a1	-0.06816221
78	0xbeee0684	-0.46489346
79	0x3eafdee4	0.3434974
80	0xbb031aa0	-0.0020004883
81	0x3ddf3e37	0.109005384
82	0x3bd1b362	0.006399558
83	0xbd4390c6	-0.04774549
84	0xbd555b7a	-0.052089192
85	0xbe1657d2	-0.14681938
86	0x3dd8fd47	0.10595184
87	0x3d95178b	0.07279881
88	0xbe901c98	-0.28146815
89	0xbdadde4c	-0.084896654
90	0x3d4951f1	0.04915041
91	0x3e32286b	0.1739823
92	0x3f024394	0.50884366
93	0xbe4f3032	-0.20233229
94	0x3ed53e46	0.41649073
95	0xbe615c6e	-0.22007915
96	0xbd2bde44	-0.041960016
97	0x3ee0c6af	0.43901584
98	0x3de1db03	0.11028101
99	0x3e1d6191	0.1536925
100	0xbeb282ab	-0.34865317
101	0xbe24dc8f	-0.16099761
102	0xbecbbbbc	-0.39791667
103	0xbd4931f9	-0.049119923
104	0x3e91f145	0.28504387
105	0x3d5b3f0d	0.053526927
106	0xbddf6d12	-0.109094754
107	0xbcca3193	-0.024681842
108	0x3e5b9e7b	0.21447174
109	0xbe677ab8	-0.22605407
110	0x3ed60e33	0.41807708
111	0x3e6cafe8	0.23113978
112	0x3e819bf4	0.25314295
113	0xbe07e115	-0.13269456
114	0xbe98469b	-0.29741368
115	0xbeb048e4	-0.3443061
116	0xbe2cb405	-0.16865547
117	0x3f0d530a	0.5520483
118	0x3e5bdf6e	0.2147195
119	0x3ee6e9ac	0.45100152
120	0x3f14a764	0.5806792
121	0xbe926211	-0.28590444
122	0x3dd5d2ca	0.104405954
123	0x3e0c4412	0.13697842
124	0xbe9293ee	-0.28628486
125	0xbe5f0444	-0.21778971
126	0x3d31002c	0.043213055
127	0x3e20652e	0.15663597
128	0xbe05d3a2	-0.13069013
129	0xbe124897	-0.14285503
130	0x3ef33843	0.47503862
131	0xbe1dd367	-0.15412675
132	0xbdf5d38c	-0.1200324
133	0xbd9a67ae	-0.075393066
134	0xbdb96a3e	-0.09053467
135	0xbdbfdabc	-0.09367892
136	0xbac4478c	-0.0014974936
137	0xbe903b61	-0.28170303
138	0x3d4e6fb8	0.050399512
139	0x3e11c150	0.14233899
140	0xbe1f1242	-0.15534309
141	0x3ead89be	0.3389415
142	0xbd8e1b9f	-0.06938862
143	0x3e032f16	0.1281093
144	0xbe3a7d8c	-0.18211955
145	0x3e674899	0.22586288
146	0xbddf4f06	-0.109037444
147	0x3e03d4eb	0.1287419
148	0x3e4c1ff1	0.1993406
149	0x3eadaaab	0.33919272
150	0xbf550658	-0.83212805
151	0xbe4d410b	-0.20044343
152	0x3ed87f10	0.4228444
153	0x3e124504	0.1428414
154	0xbe862e65	-0.2620727
155	0x3e79feac	0.24413556
156	0x3db9a669	0.09064943
157	0xbe56a111	-0.2095988
158	0x3dabe821	0.083938845
159	0x3da1105a	0.07864447
160	0xbea2e02b	-0.31811652
161	0x3e36d116	0.17853197
162	0x3e50d80b	0.20394914
163	0x3de07e33	0.109615706
164	0x3e859bb6	0.2609536
165	0xbe74cd2c	-0.23906392
166	0xbe0c7871	-0.1371782
167	0x3e6bbb83	0.23020749
168	0xbd330584	-0.043706432
169	0xbe88f4c8	-0.26749253
170	0xbec224e5	-0.37918773
171	0x3e0000c7	0.12500297
172	0xbf21833d	-0.6309088
173	0x3eb4b020	0.35290623
174	0xbc042600	-0.0080657005
175	0xbe0bbf3d	-0.1364717
176	0xbe2d6089	-0.16931356
177	0xbe3511d5	-0.17682584
178	0xbe632461	-0.22181846
179	0x3dc7d941	0.09758235
180	0x3c20c6aa	0.00981299
181	0xbec2947d	-0.38003913
182	0x3e7827b3	0.24233894
183	0x3d717910	0.058953345
184	0x3d6b18dd	0.05739676
185	0x3e145a3c	0.14487547
186	0x3d125c6e	0.03573268
187	0xbf19316b	-0.5984103
188	0x3e631444	0.221757
189	0x3defeac0	0.11714697
190	0xbe40d978	-0.18832958
191	0xbd7cd6ee	-0.06172841
192	0xbd5f69e0	-0.05454433
193	0xbd4c3791	-0.04985768
194	0x3eba3ce3	0.36374578
195	0xbe888cc6	-0.26669902
196	0x3de2c994	0.11073604
197	0x3ddf1f32	0.10894622
198	0x3e2e5f44	0.17028528
199	0x3ee7017b	0.45118317
200	0xbf0e81a5	-0.5566657
201	0x3d5a729b	0.053331953
202	0x3e34e693	0.17666082
203	0x3e4199f7	0.18906389
204	0x3cd3c95d	0.025852853
205	0xbe26e9f2	-0.1630018
206	0x3ed42bfc	0.41439807
207	0xbe09f7ba	-0.13473406
208	0xbd1b9e6b	-0.037992876
209	0xbe61f16e	-0.22064754
210	0xbda23006	-0.07919316
211	0xbe3186c3	-0.17336564
212	0xbdf11c18	-0.117729366
213	0xbe6c630b	-0.23084657
214	0xbe615595	-0.22005303
215	0x3e5d6dd7	0.21623932
216	0xbd916c6e	-0.071007594
217	0x3e490a6b	0.1963288
218	0xbe8edc40	-0.27902412
219	0xbdd77ccf	-0.10521852
220	0xbdc971f5	-0.09836189
221	0x3e6670da	0.22503987
222	0x3e7392e2	0.237865
223	0xbe8b7491	-0.2723737
224	0x3d241b94	0.040065363
225	0xbec97a44	-0.39351094
226	0xbea14e62	-0.31505114
227	0x3e98e11a	0.2985924
228	0x3da8eca5	0.08248261
229	0xbe759f99	-0.23986663
230	0xbf071b4f	-0.52776045
231	0xbe24dda7	-0.16100179
232	0x3e71d84b	0.23617665
233	0xbd4855ae	-0.048909836
234	0x3da6a332	0.08136596
235	0x3c4d6e20	0.012538463
236	0xbe0477a0	-0.12936258
237	0x3e545c95	0.20738442
238	0x3e288763	0.16457896
239	0x3e2e185a	0.17001477
240	0xbec46747	-0.38360044
241	0x3af07416	0.0018345143
242	0x3de3a882	0.11116125
243	0x3e2806e2	0.16408876
244	0x3e8300d5	0.25586572
245	0xbe1ff4e7	-0.15620767
246	0x3dc4a42c	0.09601626
247	0xbd9aab71	-0.07552231
248	0xbed60c1f	-0.41806123
249	0x3e0d4a0d	0.1379778
250	0x3e083122	0.13299993
251	0xbe090397	-0.13380276
252	0x3e8e668b	0.2781261
253	0xbe78a997	-0.24283443
254	0xbe3464e3	-0.1761661
255	0xbe614e8d	-0.22002621
